data.pth (torch, 5463 bytes, 6 tensors)

l1.weight f4 [8, 63]
0.8763439 0.44768137 -0.25055507 0.4155754 0.2242862 -0.09289408 -0.5555164 0.11889885
0.10761939 -0.18635063 0.42337668 0.004912696 -0.15739888 0.20607233 0.861887 0.026758442
0.6957042 0.21850778 0.4813339 0.23616937 -0.588911 -0.2464156 0.22499812 0.5725273
0.38362822 0.35390735 0.18360116 0.779969 0.45760176 -0.0062457956 0.19118921 -0.3441221
-0.078700036 -0.120675035 0.27319005 -0.17625937 0.62399966 0.6631841 -0.43688348 0.3833498
-0.42935762 0.49924067 -0.17329489 0.52155244 -0.078824684 0.07507785 -0.1916599 -0.41467422
0.5920437 -0.7465945 0.10585369 0.66850865 0.03203091 1.1709775 0.69431245 0.23439747
-0.07500811 -0.20459354 -0.39793515 0.45937148 -0.25016782 -0.06237389 0.103568636 0.36037365
0.66355926 -0.18638697 -0.4107891 0.43194222 0.1294822 -0.48667336 -0.0726581 -0.23081358
-0.097304076 -0.45261574 -0.17731705 -0.03545027 0.33685723 -0.23218346 0.0003075477 -0.22606969
0.420566 -0.05735364 0.2292448 -0.5033579 -0.3208769 0.64623225 0.4444458 0.5133892
0.42880002 0.5282614 0.573924 -0.20072386 -0.28795263 0.41026294 -0.15931404 0.56100667
-0.28550026 0.43446338 -0.3538789 -0.37629798 0.16171482 -0.32303786 -0.4258562 0.2875091
-0.07247535 -0.25363672 -0.37111574 -0.12921442 -0.1308049 -0.2549748 -0.4028643 -0.18576783
-0.7387472 0.65432113 -0.43719262 0.6362263 0.87569165 0.3576964 0.3241274 -0.12852
-0.048027046 -0.40648985 -0.08937922 -0.364942 -0.11792432 0.19366479 -0.11457434 0.508739
0.31970248 0.6341776 -0.2122576 0.5522132 -0.3404961 0.5760134 0.6029002 0.41742054
0.54998624 0.5551165 0.45302734 -0.1568117 0.26304036 0.4507893 0.74207 0.42553893
0.1207521 -0.1837645 -0.34051576 -0.36181024 -0.29107755 -0.14708127 -0.3405277 -0.3404681
-0.34046134 -0.6942314 0.39028507 0.31748948 -0.133761 -0.26758128 0.62182236 0.06203305
0.47773102 -0.33426607 0.7874191 -0.15387972 0.60005414 0.5694762 0.7488555 0.05605703
-0.029165642 0.5782796 0.46971053 0.47753248 -0.24228573 -0.4955254 0.50856006 0.791577
0.45392922 0.59631085 0.5709267 -0.5021289 -0.078933716 0.005546768 0.21837221 0.403743
-0.34553343 0.18079735 -0.2471691 0.55988437 0.23610751 -0.18771756 0.028998505 0.14715303
-0.09326658 0.30298835 0.4031109 0.9005902 -0.22694683 -0.05880729 0.19729477 -0.31604046
-0.048290126 0.059748754 0.3699381 0.3834826 -0.032992113 0.47621793 0.26182896 0.39984745
0.32363516 1.0264727 -0.23441912 0.56007886 -0.12771778 0.63323677 0.6075233 0.5464161
0.58634526 0.3393807 0.057331234 0.48124728 -0.28279486 0.17487489 -0.28918958 0.057280958
0.7616337 0.5693379 0.1673288 0.24677372 -0.14059842 0.39452654 0.38938642 -0.3395244
-0.32394344 -0.26874992 -0.37043816 0.63639313 -0.28864828 0.336269 0.26025218 0.1984092
0.35149825 0.07617411 -0.81695914 -0.2240114 0.16625491 0.1483121 0.26377258 -0.5618283
0.504805 -0.3331633 -0.039869886 -0.020151444 -0.11582529 -0.36403984 -0.05365547 0.3650175
00000000: 1358 603f 7e36 e53e c148 80be 4dc6 d43e
00000010: 48ab 653e 403f bebd 5336 0ebf 3e81 f33d
00000020: 8e67 dc3d b3d2 3ebe d4c4 d83e aefa a03b
00000030: 2c2d 21be a004 533e a0a4 5c3f 8534 db3c
00000040: ac19 323f 81c0 5f3e 6671 f63e 62d6 713e
00000050: dfc2 16bf 5f54 7cbe e865 663e 2691 123f
00000060: eb6a c43e 5833 b53e f101 3c3e 0cac 473f
00000070: c74a ea3e 88a9 ccbb 1bc7 433e c630 b0be
00000080: 7c2d a1bd 7924 f7bd 91df 8b3e 567d 34be
00000090: 71be 1f3f 6fc6 293f 31af dfbe 6d46 c43e
000000a0: c3d4 dbbe 799c ff3e 3774 31be 7684 053f
000000b0: d66e a1bd 6ac2 993d 7e42 44be 2e50 d4be
000000c0: 2d90 173f d120 3fbf d2c9 d83d 6223 2b3f
000000d0: d832 033d 97e2 953f 76be 313f e405 703e
000000e0: da9d 99bd f880 51be 28be cbbe bd32 eb3e
000000f0: ff15 80be c47b 7fbd cb1b d43d e582 b83e
00000100: 05df 293f 3adc 3ebe f352 d2be 8827 dd3e
00000110: fb96 043e 402d f9be c5cd 94bd 655a 6cbe
00000120: 5c47 c7bd 40bd e7be 9a92 35be 4d34 11bd
00000130: 8d78 ac3e 80c1 6dbe 5b3e a139 d07e 67be
00000140: 6d54 d73e a7eb 6abd 26bf 6a3e 10dc 00bf
00000150: fa49 a4be 7a6f 253f 668e e33e 7a6d 033f
00000160: ad8b db3e 243c 073f afec 123f 8e8a 4dbe
00000170: 876e 93be fc0d d23e 3823 23be 229e 0f3f
00000180: 172d 92be fc71 de3e 9d2f b5be 21aa c0be
00000190: 9298 253e 3865 a5be d309 dabe 6534 933e
000001a0: f56d 94bd acdc 81be e202 bebe c950 04be
000001b0: b8f1 05be 0f8c 82be 3b44 cebe ec39 3ebe
000001c0: 891e 3dbf 9781 273f b6d7 dfbe badf 223f
000001d0: 542d 603f fc23 b73e 07f4 a53e bf9a 03be
000001e0: 02b8 44bd 701f d0be 740c b7bd aed9 babe
000001f0: 4e82 f1bd 1050 463e f4a5 eabd b83c 023f
00000200: 0bb0 a33e 7759 223f 0e5a 59be d85d 0d3f
00000210: 8155 aebe 9d75 133f ab57 1a3f 25b8 d53e
00000220: e6cb 0c3f 1d1c 0e3f 33f3 e73e 3f93 20be
00000230: 3aad 863e dbcd e63e 4df8 3d3f 3de0 d93e
00000240: e14c f73d c32c 3cbe 1558 aebe 313f b9be
00000250: 1e08 95be 799c 16be a659 aebe d651 aebe
00000260: f350 aebe 26b9 31bf 72d3 c73e fb8d a23e
00000270: a5f8 08be 6a00 89be c02f 1f3f 5e16 7e3d
00000280: 2999 f43e ec24 abbe 4c94 493f a592 1dbe
00000290: 269d 193f 31c9 113f feb4 3f3f 0e9c 653d
000002a0: c9ec eebc 220a 143f e67d f03e 237f f43e
000002b0: c019 78be 81b5 fdbe fe30 023f caa4 4a3f
000002c0: 6969 e83e d4a7 183f 4128 123f 858b 00bf
000002d0: 00a8 a1bd aac1 b53b f79c 5f3e 67b7 ce3e
000002e0: c2e9 b0be f122 393e e619 7dbe 9554 0f3f
000002f0: 2bc6 713e 0839 40be 468e ed3c 49af 163e
00000300: 8c02 bfbd 4a21 9b3e 8d64 ce3e 148d 663f
00000310: c064 68be eadf 70bd a407 4a3e 0ed0 a1be
00000320: decb 45bd 1cbb 743d 8768 bd3e d557 c43e
00000330: bd22 07bd d6d2 f33e 720e 863e ceb8 cc3e
00000340: 82b3 a53e 7563 833f 910b 70be 5461 0f3f
00000350: 73c8 02be ce1b 223f a686 1b3f ede1 0b3f
00000360: b91a 163f 4fc3 ad3e 28d4 6a3d 0b66 f63e
00000370: 7dca 90be 6712 333e a810 94be 709f 6a3d
00000380: 6dfa 423f 21c0 113f 3e58 2b3e 40b2 7c3e
00000390: 08f9 0fbe 62ff c93e a85d c73e 24d6 adbe
000003a0: eadb a5be 9799 89be 12aa bdbe a9ea 223f
000003b0: b5c9 93be 732b ac3e c63f 853e c82b 4b3e
000003c0: 94f7 b33e 2c01 9c3d 3c24 51bf 3f63 65be
000003d0: ba3e 2a3e 21df 173e 330d 873e fbd3 0fbf
000003e0: e73a 013f 6194 aabe 9b4e 23bd a414 a5bc
000003f0: cf35 edbd 6e63 babe d7c5 5bbd 93e3 ba3e

l1.bias f4 [8]
0.7356944 0.6513245 0.3404433 0.9034276 0.74615306 0.66351604 0.25495145 0.61815387
00000000: 7856 3c3f 34bd 263f 964e ae3e 0847 673f
00000010: e303 3f3f 30dc 293f ff88 823e 553f 1e3f

l2.weight f4 [8, 8]
0.75961906 0.05103405 0.17229906 -1.1266335 1.1329151 0.28434676 -0.26176262 0.18292366
-0.15170759 0.2571391 1.0432061 0.84941006 -0.25014508 1.1176058 0.80151236 1.2626538
1.1273764 0.593066 -1.0970669 1.393528 0.011226727 0.7012585 -1.1445318 -0.12131322
0.1383444 -0.81866074 -0.04314491 1.114951 0.9764082 1.0187335 -0.6766561 -0.21755677
0.08704808 -0.09974861 -0.26677024 -0.012708455 -0.11534235 -0.17622781 -0.17087226 -0.02593109
-0.8035796 -0.047298092 0.39767775 0.6365537 1.288746 -0.9763651 0.64217526 0.23030612
1.1571798 -0.070476055 0.51530296 0.58568376 0.3255135 0.3671903 0.089811385 -1.4877431
0.90570724 1.3560294 -0.36666507 0.36997783 -0.9081441 0.71721196 -0.41280347 1.0120776
00000000: 6576 423f 1409 513d 2a6f 303e 8735 90bf
00000010: 5d03 913f e695 913e c005 86be 5750 3b3e
00000020: 3c59 1bbe bca7 833e c787 853f f072 593f
00000030: 0413 80be b50d 8f3f ea2f 4d3f a49e a13f
00000040: df4d 903f 2cd3 173f b06c 8cbf 205f b23f
00000050: 4ef0 373c ad85 333f 0580 92bf 1173 f8bd
00000060: 28aa 0d3e c093 51bf b8b8 30bd b7b6 8e3f
00000070: e3f5 793f dc65 823f 5639 2dbf 34c7 5ebe
00000080: 4446 b23d 0049 ccbd 1c96 88be 2037 50bc
00000090: 9c38 ecbd 1075 34be 23f9 2ebe 706d d4bc
000000a0: 65b7 4dbf a5bb 41bd 6b9c cb3e 2ff5 223f
000000b0: a1f5 a43f 10f3 79bf 9965 243f 5ed5 6b3e
000000c0: 781e 943f c055 90bd e5ea 033f 5fef 153f
000000d0: b5a9 a63e 5e00 bc3e 08ef b73d 5e6e bebf
000000e0: 6edc 673f 5f92 ad3f 86bb bbbe bc6d bd3e
000000f0: 227c 68bf 349b 373f fa5a d3be c28b 813f

l2.bias f4 [8]
0.09697097 -0.21379316 0.6867672 0.2633039 -0.33246166 0.8161335 -0.08049141 0.38034967
00000000: b798 c63d 98ec 5abe facf 2f3f c5cf 863e
00000010: 6a38 aabe 20ee 503f aed8 a4bd 31bd c23e

l3.weight f4 [8, 8]
-0.730585 -0.4029225 0.047408316 0.4956519 -0.039404392 -1.3419162 0.69813764 -0.29798353
-0.77090716 0.66653603 -0.956214 -1.2644027 -0.015189588 -0.65417284 -1.2462585 0.53246427
-1.0653406 -0.8630699 0.23035532 0.55147374 -0.35024583 0.43820587 0.14338955 -0.713755
-1.374812 0.06491448 0.3737097 0.004645061 0.070671886 -1.4571567 -0.7906843 0.65417475
0.6629901 -1.1894084 -0.98148 0.24626 -0.04043758 0.69387126 -1.6882892 -0.609518
-1.3759865 0.57646465 -1.1755538 -0.86192876 -0.33203632 0.5801829 -0.9480928 -0.8313503
0.5501951 0.41339687 -0.9343502 0.18126737 -0.17849544 -0.6800988 0.094968066 -0.73748255
0.5068942 -1.5339075 0.4460931 -1.1534166 -0.011386007 -0.7205517 0.66021776 0.5836617
00000000: 9e07 3bbf dc4b cebe 392f 423d 16c6 fd3e
00000010: 8066 21bd e9c3 abbf 26b9 323f 4c91 98be
00000020: 2c5a 45bf 1ba2 2a3f 71ca 74bf f3d7 a1bf
00000030: c0dd 78bc df77 27bf 6685 9fbf 944f 083f
00000040: 155d 88bf 26f2 5cbf 44e2 6b3e 622d 0d3f
00000050: 6c53 b3be 855c e03e b6d4 123e a6b8 36bf
00000060: d7f9 afbf e2f1 843d e156 bf3e 9935 983b
00000070: 6cbc 903d 1c84 babf 496a 4abf ff77 273f
00000080: b8b9 293f 893e 98bf 4642 7bbf 952b 7c3e
00000090: e0a1 25bd 8ca1 313f dc19 d8bf 5f09 1cbf
000000a0: 5320 b0bf 3093 133f 8c78 96bf 5da7 5cbf
000000b0: aa00 aabe de86 143f 36b6 72bf 60d3 54bf
000000c0: 96d9 0c3f c1a8 d33e 9331 6fbf 279e 393e
000000d0: 82c7 36be f41a 2ebf 9e7e c23d a8cb 3cbf
000000e0: d1c3 013f 1557 c4bf 5166 e43e 28a3 93bf
000000f0: 608c 3abc 1476 38bf 0804 293f da6a 153f

l3.bias f4 [8]
-0.51344043 -0.05066314 0.047073603 0.3119592 0.20944369 0.3365596 -0.2944229 0.27557275
00000000: d570 03bf 2784 4fbd 40d0 403d 1eb9 9f3e
00000010: 6878 563e 8a51 ac3e 99be 96be df17 8d3e
